…
nse(\n        units              = 1, \n        kernel_initializer = \"uniform\", \n        activation         = \"sigmoid\") %>% \n    # Compile ANN\n    compile(\n        optimizer = 'adam',\n        loss      = 'binary_crossentropy',\n        metrics   = c('accuracy')\n    )\nmodel_keras\n\nModel: \"sequential\"\n________________________________________________________________________________\n Layer (type)                       Output Shape                    Param #     \n================================================================================\n dense_2 (Dense)                    (None, 16)                      816         \n dropout_1 (Dropout)                (None, 16)                      0           \n dense_1 (Dense)                    (None, 16)                      272         \n dropout (Dropout)                  (None, 16)                      0           \n dense (Dense)                      (None, 1)                       17          \n================================================================================\nTotal params: 1,105\nTrainable params: 1,105\nNon-trainable params: 0\n________________________________________________________________________________\n\nx_train_mtx = as.matrix(x_train_tbl)\ny_train_mtx = as.matrix(y_train_vec)\nx_test_mtx = as.matrix(x_test_tbl)\ny_test_mtx = as.matrix(y_test_vec)\n\n#
…
